model/model.bin (npz, 9223 bytes, 3 tensors)

13387682448 f8 [210]
00000000: 0000 0000 0000 0000 e1cf c774 6b01 b540
00000010: b108 71d2 28af c040 2275 e51b 06c2 7240
00000020: 33fb 9750 d4bc f2bf b8bd b12b 2aa9 86c0
00000030: 5cdd 5f4f 4e54 68c0 61a4 d514 b287 9240
00000040: 2395 a1b6 aa04 8140 a544 4c9b b9a0 b940
00000050: b647 8846 6c38 37c0 f803 faa1 cd13 5740
00000060: 8650 6c27 da40 8d40 ef17 384c 3195 8d40
00000070: 0216 f93e 5f62 7240 c0d6 6580 c9a7 4f40
00000080: 616c 304b c76f eabf 522e d510 d4d4 a2c0
00000090: 58da fc6f a6f4 c7c0 ad73 dc2a ccc9 ae40
000000a0: fb56 46a9 1101 4640 b18c 65ac 73dd ae40
000000b0: a2e4 7bd5 16ab e9bf ba59 ed6b dae3 c03f
000000c0: 7f55 6747 d8c2 7ac0 b166 9cd3 caf0 95c0
000000d0: e62c dd29 f464 c040 3079 da52 b94b 5fc0
000000e0: 5b02 bc70 aeb8 9f40 5658 4eb8 86de 05c0
000000f0: 7b9b 35f4 c981 38c0 72fe 4e56 90e2 c1bf
00000100: 35ab 4ee5 9b2d 2b40 a3e5 f050 f702 0c40
00000110: 7f4c 57af 2d4e 0d40 abe3 7040 3168 99bf
00000120: 19de 9321 eb81 16c0 720e 4738 0f31 97c0
00000130: 32a7 2383 76c8 8440 0602 70d5 168d ca40
00000140: e4ac 9a34 a8c1 1940 46af 09f1 a30b 8c3f
00000150: de0f 96f1 1a3a c3c0 a443 9f4b 4a09 81c0
00000160: 2eaa 50da 07a6 c340 f1d9 9050 41e7 a2c0
00000170: 8edc 966c a362 9d40 1693 92da 05a4 ecbf
00000180: aa4d a205 69a1 01c0 70f0 a42c 570c dfbf
00000190: 2db6 ce1f ec67 1840 0433 f3fb 9f56 e43f
000001a0: 51f9 5317 64ba 0740 3941 ade8 7e27 9ebf
000001b0: c0b3 61fe 0ade 0fc0 28e7 e1ce 0134 9cc0
000001c0: 0817 561a 85a2 9440 780f 65f2 ebe3 7a3f
000001d0: bd09 626d cc40 17bf 8a12 f48c b9ba 2dc0
000001e0: a165 fe07 2030 6640 e1f7 a58c 7b33 1340
000001f0: 7471 c592 c003 06c0 32ed 9cff 3190 0340
00000200: 202f c24e f44f 4c3f c8cc b959 5e47 80bf
00000210: aee1 94bb a96f 40bf 5584 35aa 01d8 713f
00000220: c47f f4b9 2722 34bf eb3a 1a1c 0e7f 733f
00000230: 62b9 3315 26fd c03e 5447 e5a7 a181 81bf
00000240: 6836 ecc9 6934 06c0 fe76 af3b 74f9 0040
00000250: f2c6 ed3c d588 58be 5889 33a3 dcaf dd3f
00000260: 8ee3 5355 623c e13f 02d8 b9b5 edf2 a83f
00000270: 9aab 8660 239b ad3f 21d3 40b6 1f1a 9f3f
00000280: 2e4a 9287 2ece 21bf a8bb eb0a 5770 32bf
00000290: 6f84 968c b854 d03e 0ef4 8218 3888 c3be
000002a0: 91f4 576b f255 d83e 4c9b 9224 26da 0ebf
000002b0: f8a8 be78 a49d 9fbe 7023 10d9 d27c 203f
000002c0: a258 c640 bc55 5e3f 4899 18c8 3236 6ebf
000002d0: 3a5a ef2c 48f1 9040 7e8b 8a23 7ef4 73c0
000002e0: 6b96 9196 301c 9c40 5ba5 3ef2 9db7 af40
000002f0: 7115 fa31 019c b140 dcc7 6734 9ed1 f03f
00000300: 6b66 bcc6 5ae2 0540 63bb c029 86e4 d9bf
00000310: b9c1 c4e0 3c6f 11c0 43ad 7851 a2c5 00c0
00000320: e693 54a0 e7db f9bf 0965 e543 2e4f cebf
00000330: 6033 1b68 0a75 1140 5392 925d f8fe 9b40
00000340: 224e dbdb 19ba 75c0 b017 6634 492f 3e40
00000350: 2f48 7e9f e694 60c0 f225 a901 12f8 8540
00000360: ae28 1713 7550 7540 c996 06b8 3185 0f40
00000370: deea a91d 0552 3240 750e 74fb 3e6e ea3f
00000380: aa99 c4aa 4052 3940 ea5c 9cfc fe44 2240
00000390: 34b8 eee1 7cbf 4040 ce81 88fc 1e9d c13f
000003a0: 4251 eaf6 2b59 47c0 7a47 fa4b d1da aac0
000003b0: 0000 0000 0000 0000 ee83 8513 ab01 b440
000003c0: 79a1 3ef3 59c6 a040 ba13 04b1 a81e 7d40
000003d0: f95e 6c36 a58d e5bf 5c9d 6892 469f 2ec0
000003e0: 41c9 2f82 52a0 bebf 5316 a002 5001 0940
000003f0: 3deb b139 0da4 ccbf fbb9 31f7 cf66 1e40
00000400: 2feb cc50 21af c0bf 577e a790 7a44 22c0
00000410: 50f5 e1c8 dd30 a0c0 c728 e8d4 2429 9640
00000420: b6e4 f2f0 0334 7f40 889d b280 7b75 bc40
00000430: e39a d543 3ef4 0140 0987 fef5 0567 10c0
00000440: f854 4b86 5951 ddbf 2576 e8a8 8ace 09c0
00000450: cb34 7fb4 5de1 09c0 7a02 71d4 6f0b 1540
00000460: f09f 1129 75a8 ae3f 72a3 52b2 e42c 0ec0
00000470: 1f92 2913 e006 8d40 7fbf 0766 5460 76c0
00000480: e970 c97f 781a 9b40 5093 5b88 d31c fbbf
00000490: b4d1 3cbd fe8e 1340 6204 056a ff74 b8bf
000004a0: 1763 d5e7 a351 0c40 5646 9c33 10e0 f0bf
000004b0: 6ce1 6988 7a0c febf e524 4a1e 22a7 763f
000004c0: 3fc8 7f36 9d81 1640 4d22 7e1b 50e6 63c0
000004d0: 2f07 17ab caea 2840 3a01 6e75 7089 633f
000004e0: 4577 b3ad cfcc 983f d660 079e dd95 3bbf
000004f0: ccf3 e56a f6a9 6a3f 04ff 3999 b743 3fbf
00000500: 73dc 9609 9196 45bf dd66 c2fd f1b6 22bf
00000510: 43d4 2235 7252 703f 5740 6547 8434 00c0
00000520: 9b74 5324 9b17 f33f afe1 bc95 db80 a5bf
00000530: c152 471d 51c7 49bf d882 2d91 ba6e 6dbf
00000540: a369 00ef 1e16 72bf f83f 22bb dbdb 993f
00000550: 5280 9f2d 20c5 21bf 2140 14e2 8665 9ebf
00000560: dd43 04c9 e3ea 09c0 8424 6e11 f4df f93f
00000570: 29ce eefb 0ac4 79bf 2e2d 4aea f831 f6bf
00000580: 28dc 0ade 6bf8 eabf 3dd4 7b44 e8a7 f3be
00000590: 7089 224b 7140 e23e 58c7 9365 db8e 833f
000005a0: 7a4f 69c5 21e9 a03f 6b3a 6998 50ad 99bf
000005b0: b9c1 7537 a79c 9640 c298 9f88 d7f5 75c0
000005c0: d471 6a5c 7716 d8bf 3f4e 4add 4d64 34bf
000005d0: 91ff 656e f52d f93f 9ef3 bdfa 5a85 4e40
000005e0: 324b fd09 da60 40c0 c963 0b15 bd0d 7f40
000005f0: fc42 bfe2 6b41 b3bf da2d 0c46 54ce 313f
00000600: 7c2e 3a21 3cc6 ccbf 0c27 5b1d b25e 26c0
00000610: 397d 1555 f541 f3bf db3e 437d 4ed5 563f
00000620: 685f 217c 9b25 0bbf 69c9 151d 2eec 6dbf
00000630: 5218 aac5 bec2 05c0 2df7 6a21 23fb da3f
00000640: 8712 4b04 5504 af3e bd1d a264 4c75 2e3f
00000650: af81 aa92 6343 8b3f fff1 5cb3 b16a 6b3f
00000660: 54d4 f1ba f97e c53f 8367 b793 1d09 fe3f
00000670: 4d56 78e0 7b94 d8bf c7ea e6df 315c 6440
00000680: 512e 1eda 49a1 57c0 d7f0 5413 dcc0 4940
0.0 5377.419750679256 8542.318922166103 300.1264914477525 -1.1711009166899202 -725.1455911527655 -194.6345593330724 1185.9239076024608
544.5833561538351 6560.72502590824 -23.220402153274073 92.30942582526757 936.1065205061029 946.6490711576752 294.14825341510016 63.310836839414605
-0.8261448353326949 -2410.4141909235996 -12265.300292593587 3940.8987645045477 44.008351477952566 3950.7259246572726 -0.8021349114998382 0.13195352811699285
-428.1778024708255 -1404.1980728566816 8393.907527586864 -125.18318625769894 2030.1703519226492 -2.733655395403768 -24.50698782261632 -0.13972667898450514
13.589080015042422 3.5014482806697784 3.663173074580811 -0.02481152492348186 -5.626873516702767 -1484.2648631193701 665.0578673158072 13594.178388596523
6.439118215504298 0.013694077294722395 -9844.21049762511 -545.1612770502584 10060.06134994802 -2419.6275677934686 1880.6595939228168 -0.8950223225589038
-2.203813594832998 -0.48512820586962047 6.101486680022885 0.6355743332765944 2.966011221170597 -0.029447539283240707 -3.9834194062773065 -1805.001765756353
1320.6299832774694 0.006565019290352463 -8.870361065941349e-05 -14.864696888727185 177.50391006171142 4.800275991086864 -2.75183214821862 2.4454078645482236
0.0008640234859895492 -0.007948624718869715 -0.0005015925191065773 0.004356390479501722 -0.00030721158869262085 0.00475984107619241 2.025230210748301e-06 -0.008548033653514565
-2.7755924010478346 2.1218037283823596 -2.2849537202819065e-08 0.4638587564242207 0.5386211077267136 0.0487283977826536 0.057824235470739185 0.03037309217343698
-0.00013584440219867447 -0.0002813541895382806 3.893599747868255e-06 -2.3284084741102367e-06 5.8020902335950884e-06 -5.884579565789433e-05 -4.7111199629835966e-07 0.00012579034640250062
0.0018514955910169735 -0.003687953169691092 1084.320483913309 -319.280795613471 1799.0474493740137 4059.8084888054705 4508.0046688368175 1.0511762663922957
2.735524704575075 -0.40457300259998 -4.358630668648794 -2.096501003737701 -1.6161876929193055 -0.23679140391576706 4.364297510776709 1791.7425444509324
-347.63131318727585 30.18471076481336 -132.65315222420165 703.0087922301011 341.02858265921066 3.940036237431603 18.320390562042 0.825957766647163
25.321299241064175 9.134757894599222 33.4959986129401 0.1376074536392608 -46.69665419045715 -3437.4087827884914 0.0 5121.668266625127
2147.175683934413 465.9161844405422 -0.6735406935649443 -15.311085295935008 -0.1196338241423165 3.125640888700937 -0.22375645939959013 7.600402700815262
-0.13034454770407808 -9.133747597166048 -2072.433173237987 1418.2859684252633 499.2509622085594 7285.482432521305 2.244259386020859 -4.10060867658627
-0.4580901919810709 -3.2258504100743886 -3.2350420094795473 5.261168784520686 0.059878979934012366 -3.771920579096723 928.8594115493505 -358.02060511614394
1734.6176749682584 -1.6945376707528403 4.889643627965075 -0.095535243400279 3.5398634063716474 -1.0547029510529646 -1.878046543946847 0.0055304844614820535
5.626576282071311 -159.19727873454613 12.45857748657326 0.002384872098844107 0.024218792893285785 -0.00042091999605765645 0.0032548725932301844 -0.00047705871950397293
-0.0006588180723871142 -0.0001427812957260276 0.003984876750270652 -2.025642926957555 1.193263189218931 -0.041998731640379254 -0.0007866998735673523 -0.0035928386582074583
-0.004415627321601087 0.02525275544809344 -0.00013557451057888637 -0.0296841693389639 -3.239692278330479 1.6171761208409245 -0.006290476710023842 -1.3872002746528085
-0.8428248726621677 -1.8745315428742927e-05 8.703102455880004e-06 0.009549821889297469 0.033028655384128094 -0.025075206091339213 1447.1632975005616 -351.3651205286261
-0.3763712313173333 -0.0003111543749494162 1.573720389598723 61.04183897280676 -32.75665402286394 496.8586626477159 -0.0752170017797304 0.0002716975923681954
-0.2247996484987772 -11.184952657105462 -1.2036031077949032 0.0013936296937124202 -5.17786097737328e-05 -0.00365265852513479 -2.720090431455028 0.42157819999180185
9.243763164570344e-07 0.00023237760098403045 0.013312127984421133 0.0033467741694990223 0.1679374850097327 1.877225472466734 -0.38406273766427007 162.8810882101154
-94.52013256976467 51.506716171717635

13387251984 f8 []
00000000: 6ffb 7459 3eb3 0642
12187061038.62277

13387261136 f8 []
00000000: 4979 b390 f2bb 85c1
-45579858.08763368
